OPT-IN_FRAMEWORK/N-NEURAL_NETWORKS_USERS_TRACEABILITY/ATA_95-DIGITAL_PRODUCT_PASSPORT_NEURAL_NETWORKS/95-20_Subsystems/95-20-21_NN_ECS/Models/Trained/temp_predictor_v1.2.onnx (onnx, 576710 bytes, 15 tensors)

cabin_temperature_predictor_v1_2_1/zone_temp_predictions_1/Cast/ReadVariableOp:0 f4 [8, 6]
00000000: 52a6 143e 3746 363f 4859 5abe 3e6f 33bc
00000010: e5dd 3a3f 05ed f3bd 9636 81bd 5ffd e2be
00000020: f533 98be e5f2 f93e 59bb e03e a8f6 06bf
00000030: 6234 1dbe 664f c4be f6eb 2f3f 09e2 4f3e
00000040: 2976 c13e 67c4 d33e 78be e53e e78e a93e
00000050: fad8 8d3e 8fb3 f53e a462 f43e 7465 223f
00000060: 013b 11bf 8acc b13e a474 923e 2e25 1a3e
00000070: 4d3c dc3d a229 fabe 4410 e5be 37c1 853e
00000080: 7705 0fbf 88d9 17bf e84d 09bf 5717 6e3e
00000090: 203f edbe a05e 32be 908d 253f 26b5 993e
000000a0: 2679 033f 8011 3ebe 7299 50bd ec8f 033f
000000b0: 1831 db3e 33ca 07bf eb79 283d d888 293e
0.14516571 0.7120089 -0.2132312 -0.010951815 0.72994834 -0.11910442 -0.063092396 -0.44333932
-0.2972714 0.48818126 0.43892935 -0.5272012 -0.15352014 -0.38341826 0.6871942 0.2030107
0.37785462 0.4136078 0.4487188 0.33116838 0.27704602 0.47988555 0.47731507 0.63436055
-0.5673066 0.34726363 0.28604615 0.15053245 0.10753689 -0.48859888 -0.44738972 0.26123974
-0.55867714 -0.593163 -0.536345 0.23251091 -0.46337223 -0.17418909 0.6466913 0.30021018
0.5135673 -0.18561363 -0.050927587 0.5139148 0.42810893 -0.53042907 0.041131895 0.16556108

cabin_temperature_predictor_v1_2_1/zone_temp_predictions_1/BiasAdd/ReadVariableOp:0 f4 [6]
00000000: a5eb a33d 8c62 9c3d f5dd 9f3d 254e a23d
00000010: ee4c 8f3d aea2 a13d
0.0800393 0.07635984 0.07806007 0.07925061 0.06997095 0.07892357

cabin_temperature_predictor_v1_2_1/dense_2_1/Cast/ReadVariableOp:0 f4 [16, 8]
00000000: 61a9 32be 20ec b6bb 5d1c 8fbe 7997 d8be
00000010: 8110 e5bd d419 cdbe b8a2 c3be c8d4 7b3e
00000020: a92d 86be 1320 353e 5a4f e33e 691e 38bd
00000030: a474 623e 5383 babe 787d 09be c6de dbbe
00000040: 6f68 a83e e1f0 e63e cd8e a93e e166 adbe
00000050: 9489 c7bd 5fc0 3b3d ecef b4be f466 d4bd
00000060: 8740 fa3d f830 bdbe 2d9a a63e e0ce e1be
00000070: f466 233e 8be4 c0bd 70b2 4dbe 5d21 403e
00000080: 6711 2f3b 60cb a3be 3d4e e2bd e81a 52be
00000090: f253 bfbe d44e e3be c0b8 6dbd 7c13 ccbe
000000a0: 8975 133f 4661 323d 1ae8 3b3d 13c1 353e
000000b0: af84 aabe 67ba 99be f052 49be 9edc c2be
000000c0: 30f2 043f 3e8c 05bf b418 783d 84d4 adbc
000000d0: da07 95be 57ea 0ebd 9828 2abe bd83 043f
000000e0: 699e afbe 9478 693e 7138 7dbe 42b7 2ebc
000000f0: 64e1 ebbe 45d6 d2be 80f8 c6be fe3b cd3e
00000100: 4618 0e3f c812 18bd bbff be3e 4a1b a8be
00000110: 3a6e bdbe 234f 12be 907e 1fbe 93e6 d3bd
00000120: 23fe f13e 54f8 06bf de74 84bc 7b9b 5f3e
00000130: 2a05 aebd 7d92 ca3e 28da 53be f10d 8abe
00000140: b4d7 af3e 3bbc 8e3e 1175 d13e 2c96 abbe
00000150: 0802 9a3c fc55 6fbd a039 1ebd ca0f 30be
00000160: 275c b1be d572 1d3e 1fe6 3d3e 8cd1 9bbe
00000170: 1de9 ebbe 3ea5 b5be c834 33be f982 22be
00000180: 6338 aa3d 6f7c 03bf 68de 743e d5ca b2be
00000190: ad13 2fbe acff a5be 6013 3b3d 6bf4 6ebe
000001a0: d949 a03d 8402 fcbe 913c 013f b006 37be
000001b0: 915b b1bb 4061 cf3e e0a5 513e 004f a2be
000001c0: 8a57 93be b52b c23d 3431 193e 70a4 f53d
000001d0: 123c 933e 980f bbbe 30d0 ccbe f518 36bd
000001e0: 7365 823d 98ca 003d 4d7b e63d 4621 8ebe
000001f0: aab2 94be 4003 99bd d4e4 e5be 4166 d93c
-0.17447425 -0.0055823475 -0.27951327 -0.42303064 -0.111847885 -0.40058768 -0.38210082 0.24592888
-0.2620671 0.17688017 0.44396478 -0.044950876 0.22114807 -0.36428317 -0.13426769 -0.429434
0.32892177 0.4510565 0.3311676 -0.33867553 -0.09743038 0.045837756 -0.35339296 -0.10371199
0.12219339 -0.36951423 0.32539502 -0.44103146 0.15957242 -0.09418591 -0.200876 0.18762727
0.0026713253 -0.319911 -0.11050079 -0.20518076 -0.37368733 -0.4439608 -0.05803752 -0.39858615
0.5760122 0.0435498 0.045875646 0.17749433 -0.33304355 -0.30025026 -0.19660544 -0.38058943
0.5193205 -0.5216712 0.060570434 -0.0212195 -0.29107553 -0.034891453 -0.16617048 0.51763517
-0.34300545 0.22799903 -0.24728562 -0.010663809 -0.46070397 -0.411791 -0.38861465 0.40084833
0.5550579 -0.037127286 0.37304482 -0.3283332 -0.3699816 -0.14288001 -0.15575624 -0.10346713
0.47264203 -0.5272267 -0.016169008 0.21836655 -0.08497079 0.39564887 -0.20688689 -0.2696376
0.34344256 0.27877983 0.40909627 -0.3351301 0.018799797 -0.05843161 -0.038629174 -0.17193523
-0.3464062 0.15375836 0.18544815 -0.3043331 -0.4607629 -0.35477632 -0.17500603 -0.15870275
0.08311536 -0.51361746 0.23912966 -0.34920374 -0.1709735 -0.32421625 0.045672774 -0.23335426
0.07826585 -0.4922067 0.5048304 -0.17873645 -0.005412527 0.40503883 0.20473433 -0.31700897
-0.28777725 0.09480993 0.14960176 0.119942546 0.28756768 -0.36535335 -0.40002584 -0.044457395
0.06367006 0.03144321 0.112539865 -0.2775976 -0.2904256 -0.07471323 -0.44901145 0.026538016

cabin_temperature_predictor_v1_2_1/dense_2_1/BiasAdd/ReadVariableOp:0 f4 [8]
00000000: f2a2 a83d 65c8 b8bc 95d1 b23d 8f38 373c
00000010: ed28 3cbc f6f9 2ebc 0000 0000 c2fb b83c
0.08234204 -0.022556493 0.08731381 0.011182918 -0.011484367 -0.0106797125 0.0 0.022580985

cabin_temperature_predictor_v1_2_1/dense_1_1/Cast/ReadVariableOp:0 f4 [32, 16]
00000000: 5c5b f1bd 9bba 2f3d 7230 393e 7ed6 82bd
00000010: 8a26 9e3e 701e cd3e c2e6 8c3d 485a eabd
00000020: e719 cb3e 40a4 88bd 2309 82be 84f3 683e
00000030: 5545 c03c 86d5 f43d 152f a9bd d6a8 2b3d
00000040: 334d 423d f494 193e 220d 39be 064b 5c3e
00000050: 8c8c 9abc 6fc8 bd3d 1d77 75be f530 aa3e
00000060: ddfa 9c3e e422 39be 4a7b 793e fdf2 47be
00000070: 30ce 46bd 0a3b 483d 83af b0be e93a a7be
00000080: 7ee7 f63d f70d a9be ffd4 233e 3415 383c
00000090: fbc1 babe d017 c63e 658b 353e 130f a4bd
000000a0: fb36 be3d 6a52 023c 3c7c ac3e e069 673e
000000b0: 7ce6 b83e 04be ad3e a0e3 2a3e 3f73 c1bd
000000c0: 2206 853e ae9d 12be e1dd b73e 2c5b 963e
000000d0: ea18 e83d a7a7 bd3e 5a7b a83e e21d 4cbe
000000e0: 9d5e 4bbe a3de 013d 7279 78be dce9 7c3d
000000f0: fb47 d23e a127 043e b780 093e f69e 273d
00000100: cc2b 743e d95b 5e3d fb6f 78be 2bea f3ba
00000110: 1cfc 1bbe 62ac 6f3e 33ec 6e3e fb32 89be
00000120: b7c9 9a3e 6473 b43e 08f2 283e 13cd 8e3e
00000130: 80d5 a03e 8a65 7e3e 64c7 64be 2ca8 9dbe
00000140: 9be9 443e 820d 273d 9a45 51be e82f 3abe
00000150: 4ceb 343e 9f70 273e 2cfd 1b3e ec12 4d3e
00000160: 71d1 703d e2a0 a03d f56f babe ed31 b63d
00000170: fab4 b6be 1f52 8cbe 7924 da3d d2e4 fe3d
00000180: 3257 953e ea0c 12bd 7d54 fcbc ef3c 84bd
00000190: a828 cdbc a881 54be 1a86 3a3e 2645 b7bd
000001a0: 5b5f cd3e 8aac 7f3e 323e 9abd a5ba 463d
000001b0: 5840 d33e d95c f0bc eb4d 753e ca98 20be
000001c0: 36ed 8e3e f58e 0a3e 9a98 96be 909d 223d
000001d0: 7219 a1be 6230 0ebd 99b3 ccbe 3fe3 f23d
000001e0: 13a2 0a3d 3c1e 66be 3942 dfbe 6636 9a3d
000001f0: fc01 ccbe 4c45 dabe 4006 babd 2ab5 5c3e
00000200: 2a47 c33d e566 a03e 8d93 bf3e 23a4 b63e
00000210: 81cf 9a3d cc39 c13e effc c0bd 325a 5dbe
00000220: ddfe 4d3e f240 dabd 9e2c 873e 3547 d63d
00000230: 59d8 5d3e ba13 49bd 9685 f53d 10cf f23c
00000240: 1b5f 3cbe 20b6 a83e 0e3e 16be 0a94 ce3e
00000250: f6e1 6b3e 5aea c13d 40ac 303e f684 9ebe
00000260: e45e 7cbe dc17 893e 13b6 403e 6984 14be
00000270: 1903 273c ef2b c03e 4a76 febc f5a4 f8bd
00000280: e974 913e 3899 25bd 7e68 47be 57ed 6b3e
00000290: e2d2 943d 7df3 b9ba 9363 4e3e e5c1 4c3e
000002a0: 9d20 903e defc 123e 05e2 9c3e eaeb 04be
000002b0: 4506 58be 5d7f 0bbe 5e9b 133e e00d fbbd
000002c0: 5c01 3a3e c739 3abe ee10 1f3e 8c66 bcbe
000002d0: dd4c 61bc d6a3 9cbe f797 e93d 68c1 0a3e
000002e0: cf92 83be cee7 6ebd 2293 b1be fb25 a23e
000002f0: 7306 d5be 011a 5b3e fbad a33e e076 17be
00000300: 44b6 f7bd cfd5 64be f437 77be 3dfe 573e
00000310: ab6c 533d 5c1f c43e 45cc 5fbb a075 403e
00000320: e300 a13e 058a 2ebe 106c c33e ff67 3b3e
00000330: aaeb b93c 17e0 4b3e 6854 bc3c ba32 88be
00000340: ccae 82be d734 253c 450f 433e e64a 203e
00000350: 1d56 0abe 6835 113e ca2e db3c f70e 21be
00000360: 4aed e53e 6176 e63e 4060 ce3e 23c2 e9bd
00000370: ef4c b93d d7fa ce3e fff7 953e 529f 873e
00000380: ea0b 1b3e 32b4 68be 356c 673e 2094 5f3e
00000390: 667f 76be 401e 893e 267f 5e3e 7893 2cbe
000003a0: b33f 9f3e 603d c6bd 447b 5b3e d565 6bbd
000003b0: 6fc9 7f3e 47b5 46be 9788 da3d 56b2 d4bd
000003c0: 58ec e53c c907 c03e b0e4 993e 13ca c93e
000003d0: eb5f 82be ae88 31be fefb af3e 0a07 1e3e
000003e0: fba8 7b3e 60d4 0d3e 985d 30be 632a 99be
000003f0: d2f7 62be a6d0 37bd baf2 81be dbfd 38be
-0.117850035 0.04290257 0.18084887 -0.063885674 0.30888778 0.40062284 0.06879951 -0.11443001
0.396682 -0.06671953 -0.25397596 0.22749144 0.02347056 0.11954789 -0.08260933 0.04190906
0.047436904 0.14998227 -0.18071416 0.21512994 -0.018865846 0.09266745 -0.2397122 0.33240476
0.30660143 -0.18079716 0.24363437 -0.19526286 -0.04853648 0.04888443 -0.34508905 -0.32662132
0.120558724 -0.33018467 0.1599922 0.011235524 -0.3647612 0.38690042 0.17728956 -0.08010688
0.092878304 0.007954219 0.33688533 0.22598982 0.36113346 0.33934033 0.16688395 -0.094458096
0.2598124 -0.14317963 0.35911468 0.29366434 0.11332877 0.3704197 0.3290661 -0.19933274
-0.19860311 0.031706464 -0.24265078 0.061746463 0.41070542 0.12905742 0.13428007 0.04092308
0.23844832 0.05428681 -0.24261467 -0.0018609216 -0.15232891 0.23405603 0.2333229 -0.26796708
0.3023202 0.35244286 0.16498578 0.27890834 0.31412888 0.24843422 -0.22341686 -0.30792367
0.19229738 0.040784366 -0.20436707 -0.18182337 0.17667884 0.16351555 0.15233296 0.2002675
0.05879349 0.07843186 -0.3641354 0.08896241 -0.3568495 -0.27406403 0.10651488 0.12445988
0.29168087 -0.035656847 -0.030802006 -0.06456935 -0.0250438 -0.20752585 0.18215218 -0.08948736
0.40111813 0.24968162 -0.07531394 0.04851784 0.41260028 -0.029341148 0.23955505 -0.15683284
0.27915353 0.13531096 -0.294133 0.039701045 -0.31464726 -0.03471411 -0.39980772 0.1185975
0.033845972 -0.22472471 -0.4360521 0.07529907 -0.39845264 -0.42630994 -0.09083223 0.21553484
0.09535058 0.31328502 0.3741726 0.356721 0.075591095 0.37739408 -0.09423243 -0.21616438
0.20116754 -0.106569186 0.26401228 0.104628004 0.21664561 -0.04909108 0.1198837 0.02963975
-0.18395655 0.3295145 -0.1467211 0.4034732 0.23035416 0.09468527 0.17253208 -0.30960816
-0.24645573 0.26776016 0.18819456 -0.14503635 0.01019361 0.3753352 -0.031062264 -0.12140838
0.28409508 -0.040429324 -0.19473454 0.23039757 0.07266785 -0.0014186945 0.20155172 0.1999584
0.28149882 0.14354274 0.3064119 -0.12980619 -0.21096142 -0.13622804 0.14414737 -0.12258506
0.18164581 -0.18186103 0.15533802 -0.36796987 -0.013751236 -0.30593747 0.11405938 0.13550341
-0.25697944 -0.058326535 -0.34682566 0.31669602 -0.41606483 0.21396638 0.31968674 -0.14791441
-0.12095311 -0.22347187 -0.24142438 0.21093078 0.051617306 0.38305175 -0.0034148854 0.1879487
0.3144599 -0.17044838 0.38168383 0.1830139 0.022695381 0.19909702 0.022989467 -0.266012
-0.25523984 0.010083399 0.19048794 0.15653571 -0.13509412 0.14180529 0.02675571 -0.15728365
0.449076 0.4501219 0.40307808 -0.11413982 0.09047877 0.4042575 0.29290769 0.2648874
0.15141264 -0.22724989 0.22599871 0.21833849 -0.24072036 0.2678089 0.21728191 -0.1685313
0.31103286 -0.09679675 0.21433741 -0.05747016 0.24979185 -0.1940509 0.10670584 -0.103855774
0.028066799 0.3750594 0.30057287 0.39411983 -0.25463805 -0.17337295 0.34371942 0.15432373
0.2457618 0.13850546 -0.17223203 -0.2991515 -0.22164848 -0.044876717 -0.25380498 -0.18065588

cabin_temperature_predictor_v1_2_1/dense_1_1/BiasAdd/ReadVariableOp:0 f4 [16]
00000000: 8fc8 84bc abf4 9b3c 318c c33d cdff bd3d
00000010: 05f3 fcbc c834 b93d a6c9 b53d 1852 88bc
00000020: 457f b73d 7032 be3d 963b be3d f65c a6bc
00000030: 781b c13d 3059 bc3d 34a2 14bd 3378 043d
-0.016208915 0.019037565 0.09548224 0.09277306 -0.0308776 0.0904327 0.08876352 -0.016640708
0.089598216 0.09286964 0.09288709 -0.020308 0.094290674 0.09196699 -0.0362875 0.032341193

W0__87 f4 [1, 256, 128]
00000000: 2db0 86bd ea91 ae3d da10 093d 1012 09be
00000010: 27bc a8bd cba6 ef3d 5e7a ee39 d0f0 573d
00000020: 7f4a 83bd 6594 84bc bdfb 17ba 8c76 a03d
00000030: 8b32 e1bd 1991 a9bd f130 ab3d a912 1ebd
00000040: a650 e33d 7302 e43d 8a97 503d 3216 dc3d
00000050: 2cce a43d 1fd0 09be 8e6b a53d e5ae 90bd
00000060: 1879 ba3d a5cd e23d 3892 10be d897 253d
00000070: 10ce 0c3e de7d f93c 0a4a f1bd 01e7 933c
00000080: 1010 01be 6aef 653d 8c00 fc3c 97f4 86bd
00000090: 70da 153c 0f1c e1bd 731e cc3d f539 34bd
000000a0: afaf bd3d 7ad5 34bd 2b9f f8bd 5ff4 b23b
000000b0: 15f9 a6bd 7273 6f3d 6f45 c7bd ac80 96bc
000000c0: 76ba cdbd 8e4f ed3d 36fa 783d cae5 d7bc
000000d0: 7702 d5bd c94f 9abd f4c2 a8bc 9b40 1cbd
000000e0: 13e4 0cbe cd52 1ebc 721c 9a3d f8c0 693c
000000f0: da52 063e 0d71 993d b7ae f8bc f489 b5bd
00000100: b751 823d 352b d23d ccb1 d1bc 310d 7bbc
00000110: d194 10bd 7099 843d b7cf 893d a654 eb3d
00000120: 609d c7bd 5739 72bd faf1 51bd e794 d53d
00000130: 244b 853d ce6a 883c 5c08 d03d b239 b03d
00000140: 47cd e23d 81c3 c8bc ab18 6c3d 1b48 00bc
00000150: f5ee e5bc 62cd af3d 0a15 8cbc 84d2 563d
00000160: fa1f c43c 05c8 28bd db15 e23d e5c6 d13d
00000170: b035 79bd ae62 a3bc 92b0 d03d 9c38 073d
00000180: f25d ac3d fe11 d4bd d585 eb3c 9583 01be
00000190: adaa 0cbd 4841 a8bd 3ac1 b8bd 56b9 fabd
000001a0: 69df 0abe e567 e03d 602c adbc b94f 493c
000001b0: 948f 973d a4b5 ffbd fc41 2abd 4544 acbd
000001c0: a632 6a3d df14 e13c de45 1cbd 1cd6 b2bd
000001d0: 2d7f 5ebd 27fa b43c d8bc 12be 0deb 93bd
000001e0: 4902 51bd b614 993d bd66 dfbd 1306 6dbd
000001f0: 48b1 24bd 3df5 3d3c 5c1f c33c 24f6 8c3d
00000200: 1953 13be 9b91 a63d 8e96 b4bd d0af 123d
00000210: ee49 5cbc 216d 063e 8436 dcbd 59dd 8fbd
00000220: 38f4 96bd 717f 973d e3f1 9d3d 6e14 10be
00000230: ed71 d2bd e31f 013e caa3 f8bd 29b4 9b3d
00000240: aaf9 dbbd 1479 733c a3a4 8bbc 59c3 043d
00000250: ce23 163d cb35 883d 942a a03c b24d 753d
00000260: 2400 0cbe c63d c039 ccb5 1e3e d109 bf3c
00000270: adb3 98bc 3f52 ddbc 85fd f93c 8f60 c1bd
00000280: c8d0 803d f4db 9abd 6037 583c 1472 78bc
00000290: 929b 8b3d 4cd4 ef3d 61cb f13c 7d61 66bc
000002a0: 6cb2 90bd bc6a febd ff0f b93d d412 24bd
000002b0: 95bd 423d 4d4e d23c bd04 1bbd 4ccd 833d
000002c0: b1f9 483d d6ac ebbd 3435 efbd cae9 853d
000002d0: 7aaf 81bc 8f62 3ebd 184f bfbd 15cf 26bd
000002e0: 9a22 033c 9534 aebd 1534 5dbd 8969 cdbd
000002f0: afbe 413b 615b abbd a8b6 853c 37c7 7abd
00000300: e985 d73d cf0d 69bd ec5f 91ba 3c66 91bd
00000310: 3b96 a0bd 0efe 803d b355 9ebb fdd3 04be
00000320: 3ea5 b4bd e828 503d b444 47ba 102a 593b
00000330: 42c2 f9bd 091e cebd e567 a63d 806c ae3d
00000340: 4f5d c13d 4c31 833d fdae d7bc 193a 153b
00000350: 1792 49bb 31c9 c13d 0c6d 9c3d 041a 363c
00000360: b0d0 813d b1e2 383d e62e 17bd 9900 5cbd
00000370: 78d7 5cbd b8a3 7e3d 839e a5bd 29bd aabc
00000380: a0c9 4ebd 3395 aa39 feff a7bd 0904 723c
00000390: dfe9 0c3e a3c1 6bbb dc1b 013d 7547 03be
000003a0: d287 233d 1ad7 be3d d3f8 09bd 99dd 323d
000003b0: 5530 14be 8321 9e3d 9d69 243d 68ae eb3c
000003c0: 9bee bbbc 94a6 9a3b cae6 f33c eeb4 c2bd
000003d0: 6059 073e ce01 14be bbd0 acbd 5fac 043e
000003e0: 9846 58bd ecaf 0f3e d7d4 033e ce0d acbd
000003f0: b6ac 983d 2a63 40bd 7051 f93d a952 e4bd
-0.065765716 0.08523925 0.033463337 -0.13385797 -0.08239012 0.11701735 0.00045486068 0.05271989
-0.064106934 -0.016184041 -0.0005797705 0.07835111 -0.109959684 -0.08279628 0.08358944 -0.038592014
0.11099367 0.1113328 0.05092577 0.10746421 0.08047137 -0.13458298 0.08077155 -0.070646085
0.09105128 0.1107438 -0.14118278 0.040428013 0.13750482 0.030455526 -0.117817 0.018054487
-0.12603784 0.056136526 0.03076198 -0.065896206 0.009146318 -0.1099168 0.09966745 -0.044000585
0.092620246 -0.0441489 -0.12139734 0.00546126 -0.081529774 0.058459707 -0.0973004 -0.018371902
-0.1004533 0.115874395 0.060785495 -0.02635469 -0.10400861 -0.07534749 -0.020600773 -0.03814755
-0.13758878 -0.009663296 0.07524957 0.014267199 0.13117543 0.07492266 -0.030356748 -0.08864203
0.06363242 0.10262147 -0.025597475 -0.015322969 -0.035298172 0.064745784 0.067290716 0.11490755
-0.09746814 -0.059136715 -0.051256157 0.104287915 0.065084726 0.016652491 0.101578444 0.086047545
0.1107431 -0.024507286 0.057640713 -0.007829691 -0.028068045 0.085840955 -0.017099876 0.052446857
0.023941029 -0.04120638 0.11039325 0.10243014 -0.060842216 -0.019944515 0.10189928 0.03301297
0.08416356 -0.10354994 0.02875034 -0.12647851 -0.034342457 -0.082155764 -0.0902123 -0.12242381
-0.13561787 0.10957316 -0.021139324 0.012287074 0.07400432 -0.12485817 -0.041566834 -0.08411459
0.05717721 0.027475772 -0.038152568 -0.08732244 -0.054320503 0.022091938 -0.1432985 -0.07222567
-0.05102757 0.074746534 -0.10908268 -0.05786712 -0.04020813 0.011594114 0.023818664 0.06882885
-0.14387168 0.08133241 -0.088177785 0.0358122 -0.013445361 0.13127567 -0.107525855 -0.070246406
-0.073708 0.073973544 0.07712152 -0.14070293 -0.10275636 0.1260982 -0.12140615 0.07602722
-0.10740979 0.01486041 -0.017046278 0.03241286 0.03665524 0.06650885 0.019551553 0.05988855
-0.13671929 0.0003666712 0.15499038 0.02332011 -0.018640364 -0.027016757 0.030516395 -0.09442245
0.06289822 -0.07561484 0.013196796 -0.015163917 0.06816782 0.11710414 0.029515924 -0.014061329
-0.07065281 -0.12422702 0.09036254 -0.04005702 0.04754408 0.025672102 -0.037846316 0.06435642
0.04906625 -0.11507575 -0.116800696 0.06538732 -0.015830744 -0.04648071 -0.09341258 -0.040724833
0.008003855 -0.08506123 -0.054004747 -0.10029895 0.002956312 -0.083670385 0.016322449 -0.061225142
0.10523588 -0.056897935 -0.0011091209 -0.07099578 -0.07841154 0.06298457 -0.0048319935 -0.12971492
-0.0882058 0.05082026 -0.0007601485 0.0033136643 -0.12195255 -0.100643225 0.08125285 0.085167885
0.09441625 0.06405887 -0.026328558 0.0022770225 -0.0030757242 0.09462202 0.076379865 0.011114601
0.06338632 0.045138065 -0.03690996 -0.053711507 -0.053916425 0.062167853 -0.08086874 -0.020842152
-0.050485253 0.0003253609 -0.082031235 0.01477147 0.1376109 -0.003597357 0.03152071 -0.12820227
0.03992445 0.09318371 -0.033684563 0.043668363 -0.14471562 0.077212356 0.040139783 0.028769687
-0.022940924 0.0047195647 0.029773135 -0.09507166 0.13217688 -0.14453813 -0.0843825 0.1295638
-0.0528017 0.14031953 0.1287416 -0.084010705 0.07454817 -0.04696957 0.12173736 -0.11148579

W0__66 f4 [1, 512, 24]
00000000: 274f 4a3d 94a1 b43d 9799 913d 07ad f83d
00000010: 7d51 afbd d9f5 ea3d 5844 783d df8d 0fbe
00000020: 731b 043d cb08 c23c 7540 9ebd ae26 203d
00000030: 0088 22bd eb6b 543d a079 d73d b5ff 66bd
00000040: 0cb5 25bd c293 853d 5c7d d9bc 00e4 3e3d
00000050: 14a6 e23d 4044 473d dc4d 643c 691e 653d
00000060: 50f9 0cbe 6c2d 84bc 13d8 d63d 3e25 5b3d
00000070: fe64 883c 10ea 0a3e a061 963d 1ab2 02be
00000080: 1a91 2bbd a8ce 743d 0139 aabd 8cd2 143e
00000090: 471b 89bd 6e0e f2bd f691 143e 523f 263c
000000a0: 7dee 6abd e6ae bd3d 53ff b33d 1a35 77bd
000000b0: fcdb 0f3c 37d7 d4bd c98f 80bd e815 0f3d
000000c0: 2924 7a3d 8805 e2bd ca31 6cbd 3174 adbd
000000d0: b0be d2bd 8e41 dbbd ae70 143c 748a 8a3c
000000e0: 7450 2c3d adee 00bd 4d89 42bd 03c2 6c3d
000000f0: 6e07 cfbd 4003 0a3e 5682 b33d 9c25 42bd
00000100: eaa8 0b3d 3dcc e6bc 1fe5 0c3e 6cd0 d7bc
00000110: 9bc8 163d f7d2 353d 7e00 52bc 9864 bf3d
00000120: 9a94 823d a41c 11bb 2446 003e ce69 d0bb
00000130: c622 b0bd 284e 313d b41d 4abc 920c f6bd
00000140: 27f8 1c3d b905 0f3e b9fb a4bd 71e9 9d3d
00000150: c077 093d cf92 2ebd 0fb3 acbb 588e c4bb
00000160: d4e4 963b edf0 283c fd97 843d b688 2c3d
00000170: 92be 3bbd 1c78 25bb 6194 f8bc 144e 30bd
00000180: 913a eebd 55ec 26bd 0ae2 babd b269 2abd
00000190: 57c6 07be e11b 04bd 166e 0c3d 037b 92bd
000001a0: 9913 d2bd d53d 853d 42c8 4c3d 97c9 90bd
000001b0: a79f d43c ef4d 76bd a99c 913b adc7 ab3c
000001c0: 3f6d a3bd 1b29 07be 1b39 533d bdf2 88bc
000001d0: d563 073e d815 c8bd d207 c4bd 7df2 583b
000001e0: 4a06 0b3d d3a0 acbd ac68 32bd 9d56 33bc
000001f0: a94b 893d 5dc9 e43b f378 1a3c b46a be3a
00000200: 8405 0a3e ad60 8ebd c68b 3cbd 1052 ff3c
00000210: e8b3 aabd d8f8 0fbe f559 a03d 0eb0 61bd
00000220: d3a4 23bd fd58 623c 93ab 07bd ac95 1fbd
00000230: 3864 903c 5f22 683d dcc1 98bd f856 4e3d
00000240: b814 7c3a b303 4a3d 9d02 bb3c 04c0 a9bb
00000250: 214f 4a3d 69af d83b 26d0 d93d 187e a43d
00000260: 14d2 5fbd df74 84bd 4aca eb3c f839 4a3d
00000270: a9b5 423d 73bf 903d 7bfa 5ebd 7d48 823c
00000280: 6f40 81bc c8b1 a13d 00a4 a83d fa8c d63d
00000290: 32fb 753d 3fa6 9e3d 4d67 12bd 5a46 d73d
000002a0: 26f6 123d 86f8 9c3a 5197 36bd 8986 68bd
000002b0: a7a7 74bc 0bfa f93d 8aae 223d 7758 95bc
000002c0: 9413 3cbc 91a6 b83d e3d7 e93d c731 01bb
000002d0: 6e44 b13b 650d ebbd 3088 3d3d 424d 49bb
000002e0: d8cc b1bd 95ee 963d 8d8d d63c a122 6c3d
000002f0: b5a5 5dbc 2091 6a3d 79a8 d2bc f4d4 623d
00000300: 7271 f6bc 4442 83bb 4819 dfbd 893b cabd
00000310: 165a 43bd 34c3 053d 869b 093e 63d1 4c3d
00000320: af9c b6bd 4dd8 60bd efa5 973b 77de a43d
00000330: 08e0 46bd ce2a 933d 0051 e8bd 01a1 b93b
00000340: e3fd 10bd 0b65 fe3d c2de 80bc e187 d3bc
00000350: 1bb1 653d 2187 ddbd 0ba6 41bd c851 a03b
00000360: 3cdc 353d c9ae 033c ca2e cc3d 132f 5d3c
00000370: c040 f2bd 5d01 02bd bbe4 ba3d 515f f1bd
00000380: abf0 933c e774 dcbd ea06 283d 0d55 07bd
00000390: 83b7 22bd 4440 cabc 695b 543d b488 023e
000003a0: 9ead 723d 062e 723c bc2e 9fbb 3d3c 213d
000003b0: 4f3b b43c 8b0f 74bc 00e3 043e 2be6 e93d
000003c0: 966b d8bd 002b 6ebd dfb0 4fbd 97fa c73d
000003d0: 7e38 71bc 54f6 1ebd dec4 ec3c f8ac eebd
000003e0: cdb5 30bc da2a 00be 63a2 7c3c 2d43 c73d
000003f0: 3867 073b 15fa 14bd c32e b03d 73fd 9e3c
0.04939189 0.08819881 0.07109373 0.12142377 -0.085604645 0.11472673 0.060612053 -0.14018963
0.03225274 0.023685833 -0.07727138 0.039099388 -0.03968048 0.05186073 0.10521245 -0.056396205
-0.040455863 0.06522323 -0.026549034 0.046604156 0.11066833 0.048649073 0.013934579 0.055937205
-0.1376698 -0.01613494 0.10490432 0.053502314 0.01664972 0.1356585 0.07342839 -0.12763253
-0.041886427 0.059767395 -0.08311654 0.14533442 -0.06694656 -0.118191585 0.14508805 0.010146933
-0.057356346 0.09261875 0.087889336 -0.060353376 0.008780476 -0.103926115 -0.06277425 0.034933
0.06106964 -0.11036211 -0.05766467 -0.084694274 -0.10290277 -0.10705863 0.009060068 0.016911723
0.042068914 -0.03147762 -0.04749422 0.05780221 -0.10108839 0.13477802 0.08765094 -0.04739915
0.034096636 -0.02817356 0.13759278 -0.0263445 0.036812406 0.044390645 -0.0128175 0.093453586
0.06376 -0.0022142315 0.12526757 -0.006360269 -0.086003825 0.043287426 -0.012336183 -0.12014116
0.038322594 0.13967027 -0.08055825 0.07710541 0.033561468 -0.042620476 -0.005270369 -0.005998414
0.004604915 0.010311347 0.06474302 0.042122565 -0.04583604 -0.0025248593 -0.03034419 -0.04304321
-0.116322644 -0.040752728 -0.09125145 -0.041604705 -0.13259254 -0.03225315 0.034284674 -0.07152369
-0.10257644 0.06505934 0.04999567 -0.070697 0.025955034 -0.060132917 0.004443724 0.020969236
-0.079798214 -0.13199274 0.051568132 -0.01671731 0.13221677 -0.09769791 -0.09571804 0.0033103519
0.033941545 -0.08429112 -0.043556854 -0.010945943 0.06703884 0.006982012 0.009428251 0.001452765
0.13478667 -0.06952033 -0.046031736 0.03116706 -0.08335096 -0.1405977 0.07829658 -0.05509954
-0.03995211 0.013815162 -0.03312261 -0.038961098 0.017625913 0.056673404 -0.07458851 0.05037591
0.00096161244 0.049319934 0.022828395 -0.0051803607 0.04939187 0.0066127074 0.10635404 0.08031863
-0.054643705 -0.06467604 0.028782982 0.04937169 0.047536526 0.07067766 -0.054438096 0.015903706
-0.015777795 0.07895237 0.082344055 0.10476108 0.06005401 0.07746553 -0.035743047 0.10511465
0.035879277 0.0011975921 -0.0445779 -0.056768928 -0.01493255 0.12205895 0.039717235 -0.01823066
-0.011479277 0.09016145 0.1141813 -0.0019713507 0.005409769 -0.11477164 0.046272457 -0.0030716215
-0.08681649 0.07369725 0.026190544 0.057650212 -0.013528277 0.05726731 -0.0257151 0.05537887
-0.030083392 -0.004005702 -0.10893494 -0.09874637 -0.047693335 0.032656863 0.13438234 0.050004374
-0.08916604 -0.05489378 0.004627935 0.08050244 -0.048553497 0.07185899 -0.113435745 0.005664945
-0.035398375 0.12421616 -0.01573122 -0.025821628 0.056077104 -0.108167894 -0.04727749 0.0048925616
0.044399485 0.0080372775 0.09969862 0.013499993 -0.11828756 -0.03173958 0.09125658 -0.11785758
0.018059095 -0.10764485 0.04102222 -0.033040095 -0.03972579 -0.024688847 0.051844988 0.1274746
0.059247606 0.014781481 -0.004857866 0.03936409 0.022000937 -0.014896284 0.12977219 0.11420854
-0.105673954 -0.058146477 -0.050705787 0.09764593 -0.014722941 -0.038809136 0.028902467 -0.11654085
-0.010785532 -0.12516347 0.015419575 0.0972961 0.0020660888 -0.03637131 0.08602669 0.019407963

W0__108 f4 [1, 128, 64]
00000000: f180 41be b8a8 c43d 4309 5a3d a068 3cbe
00000010: f1eb f63c c72a 483c f5b1 9d3d ee6a babd
00000020: 232e bfbd 3f66 053e 9000 34be 8c16 93bd
00000030: a337 86bc f502 943d e194 ecbc d404 503e
00000040: 8064 993d f59d 2ebc 1a37 3c3e 4b26 013d
00000050: a462 bd3c 761b af3d 4146 5b3d 0212 0dbd
00000060: c491 743d e26a 303d db6b 033b 8c90 d1bd
00000070: 3a76 413c 81c1 053e 90a5 eebc 0924 0a3e
00000080: aff7 e7bd 0411 d43d b347 26be 4c65 27bd
00000090: e55f 2b3e b6f3 0b3e b9e2 c7bc 2a4d 8bbd
000000a0: bc0c 6cbd e90e f9bd 2a5b 1f3e dbf9 c9bd
000000b0: 8358 eb3d 1752 093e 0e8f 9abd dabd 353e
000000c0: 77eb 2b3e 16c6 393e abab 04be 85e9 4abe
000000d0: 93c3 523e 1c18 90bd 9326 9fbd 4262 083e
000000e0: f3e0 2cbe c5f1 4e3e 25ee bbbd 420a b2bd
000000f0: 0437 a2bd 1a0b f0ba 9eb3 203d c951 0a3e
00000100: 19e7 27be 4df8 0ebe d8b1 393e 1759 603d
00000110: b33a 963c 1e20 b83c 6429 abbd b923 cfbd
00000120: 6f76 c73d d859 37be 3a0a fd3d 6847 c13d
00000130: 6596 71ba 6fe0 99bd 34aa 6e3d 49c6 c53d
00000140: bac8 223e 857e d93d 6231 b73c 3ea4 d4bd
00000150: 5737 a3bd dd67 8a3d f3ff 333e 0090 d63d
00000160: 6135 9d3c 281a 2a3d b2ec 0fbc a552 72bd
00000170: 0714 103e 9e57 d9bd 50ac e53d 9548 0cbd
00000180: ad3e ee3d 812c a3bd 38eb 60bd c08f b03c
00000190: d4bf 2f3d c218 143e d7a2 283d 8d52 dfbd
000001a0: 0b3f 24bc e4a9 433e a812 c1bd 17ea e0bd
000001b0: 9463 823d 8836 c3bd 09e6 b03d 1147 123d
000001c0: 19aa d5bd cb81 b3bb b75e 1b3e df49 cebd
000001d0: 97e0 afbd 1e2a 383e 5522 1d3e f370 a53d
000001e0: edcb 0a3d 8c24 263e e5d4 c83d bb0e f73d
000001f0: 3fb6 f73d f397 40bd 1cc2 01bd 2144 1b3e
00000200: 9d12 19be e505 0d3e 3e0c 013e 285b 55be
00000210: a8b6 30be 3810 afbd 38e3 41bd d1d9 81bd
00000220: fdc0 27be c305 3d3d 68bf 09be ceca 173e
00000230: 1d4b 353e 22c3 de3d a5a1 02be 8508 3dbd
00000240: a415 953c 1e84 02be 9530 00be 7f2e 00be
00000250: 409b a9bd 5ad0 a33d da1b 7cbd afa1 053d
00000260: 52c2 623d 4d7b 3f3d 00cd 123d 0404 243d
00000270: e77f 463e 03a9 febd 74c7 19be 0c3c 3cbe
00000280: 6f51 c33d f3a4 41be a8db 45be db59 b1bd
00000290: 32c7 10be 654d 6ebd 32f6 eabc 56c6 6f3d
000002a0: 1b7d 09be 31dd 74bd f8a6 00bd c852 c63c
000002b0: 3d99 03bb 4d70 1ebe de4e 1ebe a975 22bd
000002c0: f100 babd 357a 0b3e 78a3 9f3d 7dec 25be
000002d0: 763c d5bd 07b9 8c3c 7d10 483d 93ae e03d
000002e0: 641f 093e 5473 1c3e 922f 6d3b 55ed 2cbc
000002f0: 7909 a0bc a69c 453e 4209 7e3d 62a0 973d
00000300: 2b3f 4dbe f501 d4bc ae89 ddbd 5000 29be
00000310: 22c7 5abd 5842 8dbd 6c6d b73d a979 0cbe
00000320: 3cb2 b73d f8bb 593d b347 06be 8f51 21be
00000330: 3b19 05be 0f5c 503e 855c 843d 31b1 1d3e
00000340: e258 10be 1326 1f3e 2340 15bd e184 7d3d
00000350: 9369 ed3d 328a 22be 6d5b 493e 4b40 81bd
00000360: 2df3 0d3e 8b8b 11be 4cb9 5bbe 87cd d93c
00000370: 6a40 cb3d 645c cb3d df01 e03c 5cc6 c1bd
00000380: 9180 9b3c 2e4b aabc 16f6 4e3d 0151 8939
00000390: e55c 6d3d 38de 4e3e 4e0a 33be f890 39bd
000003a0: 60c2 70bd b834 42bd 8a33 0abd b452 253d
000003b0: 32e1 2abc 841c 00be 6542 083d 8403 efbc
000003c0: 9662 14be 797a 9d3d 56da 293e a955 1fbd
000003d0: 7622 313e a652 0fbe 6537 1c3e 15ce c93d
000003e0: 5e0d 85bd 382c b1bc fa69 1b3d 842c c63d
000003f0: b9fc 323e 3b57 a43d c5c9 f93c a826 973d
-0.18896843 0.09602493 0.05323149 -0.18399286 0.030141803 0.01221723 0.07699958 -0.091024265
-0.09334972 0.13027285 -0.1757834 -0.07182035 -0.016383952 0.072271265 -0.028879585 0.20314342
0.07489872 -0.010657777 0.18380395 0.03153066 0.023118325 0.0855016 0.053533796 -0.034441
0.059709325 0.04307068 0.00200533 -0.10232648 0.011807973 0.13062097 -0.02913168 0.13490309
-0.11326539 0.10354808 -0.16238289 -0.04086809 0.167358 0.13667187 -0.024400102 -0.06801827
-0.057629332 -0.12161047 0.1556212 -0.09862109 0.11491492 0.13410221 -0.07546817 0.17748204
0.16789041 0.1814197 -0.12956111 -0.19815643 0.20582418 -0.070358485 -0.07771029 0.13318732
-0.16882686 0.20209415 -0.09176282 -0.08693363 -0.0792065 -0.0018313855 0.039233796 0.13507761
-0.1639675 -0.13961907 0.18134248 0.054772463 0.018338537 0.022476252 -0.08357504 -0.101142354
0.09739386 -0.17905366 0.12355466 0.09437448 -0.0009215831 -0.075135104 0.058267787 0.096569605
0.15896884 0.10619835 0.022362415 -0.10382889 -0.079695396 0.067580916 0.17578106 0.104766846
0.019190492 0.04152885 -0.00878446 -0.059160847 0.1407014 -0.10612415 0.112145066 -0.034248907
0.11633048 -0.07967473 -0.054911822 0.02155292 0.04290755 0.1446257 0.04117092 -0.10904417
-0.010024796 0.19107777 -0.094273865 -0.10982149 0.06366649 -0.095318854 0.08637626 0.035712305
-0.10432834 -0.005478119 0.1517285 -0.100726835 -0.08587759 0.17984816 0.15345128 0.08078184
0.033885885 0.16224879 0.098062314 0.120633565 0.120953076 -0.04701991 -0.031679258 0.15162708
-0.14948507 0.1377178 0.12602326 -0.20835555 -0.17257178 -0.08548015 -0.047335833 -0.06340373
-0.16382213 0.046148073 -0.13451922 0.14823458 0.17704435 0.108770624 -0.12756975 -0.046150703
0.018198796 -0.12745711 -0.12518533 -0.12517737 -0.08281565 0.07998724 -0.06155 0.032624897
0.0553611 0.04674845 0.035840034 0.040042892 0.19384728 -0.1243458 -0.15017492 -0.18382281
0.095370166 -0.1891058 -0.19322073 -0.08659717 -0.14138487 -0.058179278 -0.028681848 0.058538757
-0.1342663 -0.059781257 -0.031409234 0.024209395 -0.002008035 -0.15472527 -0.15459773 -0.03966299
-0.09082211 0.13620837 0.07794851 -0.16203494 -0.10411923 0.017178072 0.04884385 0.109707974
0.13390881 0.15278369 0.0036191684 -0.010554631 -0.019535767 0.19298038 0.062020548 0.074036375
-0.20043628 -0.02587984 -0.10817276 -0.16504025 -0.053412564 -0.0689742 0.089564174 -0.13718285
0.089695424 0.053157777 -0.13113289 -0.15753768 -0.12997906 0.20347618 0.06462959 0.15399624
-0.14096406 0.15541868 -0.03643812 0.0618943 0.11592402 -0.1587303 0.19663782 -0.06311091
0.13862295 -0.14213388 -0.21457404 0.02658726 0.099243954 0.099297315 0.027344642 -0.09461662
0.018982204 -0.020787802 0.050527655 0.0002619103 0.05794992 0.20201957 -0.174844 -0.04530427
-0.05877912 -0.047413558 -0.033740558 0.040362075 -0.010429667 -0.12510878 0.033266444 -0.029176481
-0.14490733 0.076893754 0.16587195 -0.03890005 0.17298302 -0.13996372 0.15255506 0.0985376
-0.0649669 -0.02162753 0.037942864 0.096764594 0.17479219 0.080244504 0.030491719 0.0738042

R0__88 f4 [1, 256, 64]
00000000: 6b5c 97bd 3511 1c3d 19b2 ca3d 6287 1cbd
00000010: ae76 393d 02e6 883d e5d7 333e a509 f13c
00000020: 9cd3 ba3d 0d7d fdbc cea1 01bd 6039 cf3d
00000030: e6dd e7bc f65f 843d 8c3d 18bd f584 a73c
00000040: fe74 0c3e 41a2 bf3d cac9 e63c 3a16 303d
00000050: b649 81bd f318 73bd 7d8c ae3d acb2 ca3c
00000060: 7381 5d3d de7f 593d 36f2 873d b2bf 3abd
00000070: b4a9 13bd d040 76bd 46de 9c3d 34e9 933c
00000080: 3288 d7bd 0200 fdbc 93a0 b1bd 730a b3bd
00000090: bc88 283d ff01 bdbd 6ec8 fb3c bb6e 233d
000000a0: 56ff c7bd d60d df39 5667 1cbd 4741 94bb
000000b0: 305a 9b3d 84e1 773c 8b35 8c3d 6b35 cdbd
000000c0: 419c fbbc 3fc8 f63c e6f4 cb3d 4453 793c
000000d0: 8781 70bd eaf2 093d 5490 bd3d 8ee0 813d
000000e0: 6c03 093d 594e 7bbd 9a6f 3bbc 69f4 ddbd
000000f0: fc4a 9bbd 8e41 b93c 476a 5e3d ff4c 1abc
00000100: a567 723b 71e7 d4bc 9e4d 87bd 0a23 2bbd
00000110: cae4 abbd 1fb7 78bc ee69 e13d f019 bdbb
00000120: 86fc 1cbd bb56 d33a 873c b5bd c6a6 bcbd
00000130: 2e45 8dbc 1e9b a23d 6f37 5ebe adfe 71bd
00000140: c542 97bd 4e09 c83d c9cd c53c eddf 1f3d
00000150: 4879 d73c f2c6 9f3d 06f6 48bc e767 0fbc
00000160: 3e0a 4bba abb4 25bd 4a79 f73d d908 fd3d
00000170: 5c93 093e 017a a3bc 8657 3a3d 8f43 86bd
00000180: 4281 473d 29e7 353c 4e33 47bd 33ef 2d3d
00000190: 91ed 863c 4bee d3bd 4ca5 b9bd ab4e ddbc
000001a0: 4100 d9bd 439e 86bd 21e3 c53d ba13 e93a
000001b0: 1183 b7bd 23e8 35bd e258 6fbd 58b2 643d
000001c0: afd4 b43c 6052 2bbb 1c91 9c3c b154 f03b
000001d0: 3b53 62bd a183 29bc 7ead 343e 1854 42bd
000001e0: f564 23bd 6842 d23d 506f 52bb 1ce0 85bd
000001f0: 9114 e73c 6c71 ce3d 370f e73c 21b8 793d
00000200: 41b8 5fbd a3e9 08bc 2eb9 c6bc 3157 a83d
00000210: f563 983d f831 bd3c 4aa1 803d dce6 843c
00000220: bc90 03be b23b cc3c ccf7 953b bce9 96bc
00000230: 2a23 42bd 7ef4 5c3a 6b6d 09bc 79f4 663d
00000240: 5369 0a3d 2e45 1e3d 2147 0cbd 92e3 8ebd
00000250: 2055 32bd 04df 0c3d 5f7b ca3d 379c 893c
00000260: aa33 8ebd 0ab7 febd 718c 4bbd b30c 023e
00000270: 08d0 c63d 3416 133b 15ea 8a3d 6b93 20bd
00000280: 70d4 a13d 28c7 613d ed75 2a3c c589 a2bd
00000290: cee6 14bd 9b20 bc3d e34a 09be 2a69 513b
000002a0: 733e 493d 1094 67bd f649 8c3d 40dc 9c3d
000002b0: 216b db3c 6dea 67bd 5ba9 3bbc 4e38 363d
000002c0: c66a 27bd f3bb e0bc 54ba c93d c72e 0dbd
000002d0: 1148 b03d 1b8b f03c 3843 79bd 1775 edb9
000002e0: 3f10 77bd 07ac a53d b7e2 1dbd 3f4a 3e3d
000002f0: c801 b3bd 1448 6e3c f30b 1dbd ee54 1f3e
00000300: 896b 833c d4a6 0fbd 46ee 4bbd 96a1 e8bd
00000310: 5349 27bd 2cd4 8bbd 6d6a bbbc e20e 16bd
00000320: 0862 70bd 5162 1dbd a220 b53c ef83 e7bc
00000330: 62fe 0a3c 880c 63bd 3772 80bd 8a72 afb8
00000340: 1106 463d ac4c 0c3e 77bf 0e3e bef8 c43c
00000350: 2840 a03d b74b cb3d 4338 b73c 8c4d 863d
00000360: f22a cb3d fcd6 39bd a66f f03c 6bad b5bd
00000370: 6311 c43d 0b8b fd3c b97b 3c3c 7cfd f1bc
00000380: 4a6d 273c 8040 383d 6c75 e8bc c617 7d39
00000390: 54b6 0dbd 2e1d 57bd a130 b9bc bff3 b9bd
000003a0: 4543 833d 68ae af3d d9a9 7abd d4b5 a8bb
000003b0: e6fa 58bd cbdf 88bd 6aba 0b3c c9e4 173c
000003c0: ebad 6fbc 7de9 08be 22ff db3d bd95 363c
000003d0: 4579 113e 3db8 6a3d 9f81 823d be0a 8bbd
000003e0: 83db dbbd 7abe 36bd 4d79 253c 1055 a33d
000003f0: 673b 77bc ebc8 a4bc ba50 0ebe 4131 aebc
-0.07390674 0.038102347 0.09897251 -0.03821505 0.045279197 0.066844955 0.17562826 0.029423544
0.091223925 -0.030943418 -0.03164845 0.10118365 -0.028304052 0.064636156 -0.03716807 0.020449141
0.13716504 0.09357119 0.028172392 0.042989947 -0.06312887 -0.059349965 0.0852289 0.0247434
0.05407853 0.05310046 0.06637995 -0.04559297 -0.036050513 -0.060120404 0.07659583 0.018055536
-0.10524024 -0.030883793 -0.08673205 -0.087422274 0.041146025 -0.09228896 0.03073522 0.039900523
-0.09765498 0.00042544183 -0.038184486 -0.004524383 0.07585561 0.015129451 0.0684615 -0.10019954
-0.030714156 0.030124782 0.0995882 0.015217606 -0.058717277 0.033678927 0.09256044 0.063416585
0.03345053 -0.061354015 -0.011440182 -0.10837633 -0.075826615 0.022614267 0.054300573 -0.009417771
0.0036988046 -0.025989266 -0.06606601 -0.041781463 -0.083932474 -0.015180378 0.110065326 -0.0057709143
-0.038326763 0.001612387 -0.08849435 -0.09211497 -0.017244902 0.079397425 -0.21700834 -0.05908077
-0.07385782 0.097674 0.024145978 0.03903191 0.026302949 0.07801618 -0.012265688 -0.0087528
-0.00077453617 -0.0404555 0.12083681 0.12355203 0.1343512 -0.019955637 0.045493625 -0.065558545
0.048707254 0.011102476 -0.048632912 0.042464446 0.016470702 -0.10348185 -0.09064731 -0.02701505
-0.105957516 -0.06573155 0.09662462 0.0017782368 -0.08960546 -0.044410836 -0.058434375 0.055834144
0.022074072 -0.0026141629 0.019112162 0.0073343148 -0.055255156 -0.010346324 0.17644307 -0.04744348
-0.039891202 0.10266572 -0.0032109804 -0.06536886 0.028208049 0.10080227 0.028205497 0.060966615
-0.054619078 -0.008356485 -0.024258222 0.082197554 0.0744094 0.023095116 0.062807634 0.016223364
-0.1284818 0.024930809 0.004576659 -0.018422 -0.047396816 0.0008428766 -0.008387904 0.05638549
0.03379185 0.038640194 -0.03424752 -0.06976999 -0.043538213 0.03439237 0.098868124 0.016798122
-0.06943448 -0.12437256 -0.049694482 0.12700157 0.097076476 0.0022443654 0.06782929 -0.03920309
0.07901847 0.05512157 0.010404092 -0.07936434 -0.036352925 0.091859065 -0.13407473 0.0031953552
0.04913182 -0.056537688 0.068500444 0.07659197 0.026784481 -0.05662005 -0.011453952 0.04448729
-0.04087331 -0.027433371 0.098499924 -0.03446844 0.086074956 0.029363206 -0.06085512 -0.000452914
-0.060318228 0.08089452 -0.03854629 0.046457525 -0.08740574 0.014543552 -0.038341474 0.15559742
0.016042488 -0.03507121 -0.049787782 -0.11358945 -0.04084141 -0.06827578 -0.022877896 -0.036635287
-0.05868724 -0.03842384 0.022110287 -0.028261153 0.008483501 -0.055431873 -0.06271785 -8.365985e-05
0.04834563 0.13701123 0.13940226 0.02404439 0.07824737 0.09926551 0.022365695 0.0655776
0.099203005 -0.04537104 0.029350113 -0.088709675 0.09573629 0.03095009 0.011504107 -0.029539816
0.010218928 0.044983387 -0.028376304 0.00024136817 -0.03459771 -0.052518062 -0.022606196 -0.09079694
0.06409315 0.08578187 -0.061197136 -0.0051486287 -0.05297365 -0.0668331 0.008528331 0.009270855
-0.014628868 -0.13370319 0.10742022 0.011144099 0.14206417 0.05730461 0.063723795 -0.06789158
-0.10735228 -0.044615246 0.010099721 0.07975209 -0.015089846 -0.020115336 -0.13897982 -0.02126372

R0__67 f4 [1, 512, 128]
00000000: c23e cabc c049 2ebd 3712 4a3c 3014 7d3d
00000010: b16a 80bd f463 0f3d 026c 443d 3655 babd
00000020: ac8d 893d 7060 bcbd 8628 ffba 9cab 76bd
00000030: 663b 88bc 188b 1a3d 5434 0bbc 49b1 3cbd
00000040: 1f4d 39bd a402 e23c 9791 17bd 1c34 183d
00000050: 3dcd 1d3a c33d 67bd cdd7 5c3c 81da c3bd
00000060: 8938 3abd a65f 3fbb 2a3d d93a 533f dcbd
00000070: 5f50 6e3d 5994 ee3c 6314 0fbd 1f83 78bd
00000080: 4375 b83b 166f 043d 93e7 013d b9ca 1e3d
00000090: bf7b 143d 70e7 993d 6c4e 80bc bf1d 3abb
000000a0: 1528 633d 265d b7bd 7c71 903d 463e bd3d
000000b0: 4406 64bd e3a1 2c3d 36ac de3c bad8 a63d
000000c0: b510 7a3c 4e4c ecbc 48fe 9bbc dc79 01bc
000000d0: 7ed9 1ebd 18e0 13bd b20e f6bb bf6b 1fbc
000000e0: 4702 9f3c 6e5c a4bd 2edc 403c 8055 14bd
000000f0: a0e6 3abd 9544 11bd 1417 743d b2e8 5b3c
00000100: 9724 7dbc 7c43 3f3d 92a5 8b3d 5d81 bdbc
00000110: 8eef 593b 5120 423d 0f30 063d 55d5 b4ba
00000120: 7539 0fbd ac1d 403d a206 04bc a18f 193c
00000130: fc74 283d c675 15bd 3479 88ba ea06 a2bd
00000140: 7144 c7bc 8b0c 88b9 6ae5 0cbb 28df 113c
00000150: b2cb 613c 0b8f c3bc ac24 d9bd 70c2 fe3c
00000160: 1022 653b de96 143e bc8b 813d 91f6 243d
00000170: 5743 303c 6e1d 7fbd 7c56 653b 4c68 f43c
00000180: c08b 2cbc cb4c f33a 25d0 3e3b 7de1 1ebd
00000190: 3c12 f7bb fc1f 59bd ac23 93bd 8ef6 edbb
000001a0: ab07 21bd 238e 083d 5ac5 6e3d f1a5 be3b
000001b0: fbf5 64bd c817 bf3c 7e35 62bd c734 06bd
000001c0: 1106 62bd a97f 4ebb fe07 fabc 6b54 f23c
000001d0: dc86 863d 1b52 95bb 4135 ab3c 4327 813c
000001e0: 39fa c53c c9c5 133d 7697 003d 92fc 663c
000001f0: 6819 543c b9fc 00bd da1a 84bd 2f24 e03c
00000200: b881 aebd 7efd 16bd 9c1f 39bd 4bfa 4abd
00000210: 08ac d2bd 13f0 78bd ecfd 633d 8dc2 0cbe
00000220: 2132 ba3c f07b 833d ba82 593c 445d 0f3d
00000230: 816a 82bd 6462 1dbd 68f8 663d bc6e d53c
00000240: 2642 8dbd 7d1a 79bd 9c75 1a3d 058a 21bd
00000250: 9844 4c3d 6e05 39bc 9f79 58bd 67fb 2a3d
00000260: 140b debb 8716 acbc f07c de3c fe7d 8cbc
00000270: f378 ba3d 2cf2 283c d6ca 00bd 086d 9bbc
00000280: e291 98bc b467 a2bc 46c2 f83c de56 4bbd
00000290: 9a63 f9bc 5989 a8bd 1c0c 48bd ea45 27bd
000002a0: 8f86 893d e65e 15bd d5f8 e83c af83 203d
000002b0: b04f af3b 972a d33c d8f2 8e3c 874b 753d
000002c0: c4c3 94bd f5d5 973c 7a7a 803d 4113 83bd
000002d0: 1c6d 32bb 7a85 843c 0e40 e5bb 6cef c43c
000002e0: 0668 59bd 2073 ba3a e3e2 94bd 3e31 9e3c
000002f0: 3ddc 85bd 5200 a53d 7ffc cfbc 4704 f23c
00000300: ff28 ae3d 00b0 43bd 340c 3fbc 4668 b2bd
00000310: 6540 553c 1671 38bd 7912 4d3d d4b8 55bc
00000320: 7123 7cbc ea87 94bc f117 dabb 1016 6cbd
00000330: 04ef d5bd 5980 adbd f4d6 873d f81f f7bd
00000340: 79e1 793c 8281 eb3c 72fa ebbc 13f0 a9bd
00000350: d1b9 443b 982a edbc 0265 93bc 4cfb a6bd
00000360: d7be 5a3d 6455 083d 524b b8bd b9e1 1abd
00000370: 1094 593d 5810 633d 5104 d63d 2cea 6fbd
00000380: 0109 bfbc 7a97 823d d33f 16ba 6ec0 88bd
00000390: bef2 823d 84c3 813d 8369 09bd 8ea7 0fbd
000003a0: 24a4 08be f7ea aebc 9ec4 84bd 639b c03c
000003b0: 58c6 03bd edd5 15bc c33b a7ba 9b2d 3ebb
000003c0: 30a4 253c 7aa4 383c dc12 8fbc 7057 df3c
000003d0: 229d d5bc ce25 b43b 4f84 62bd 2c75 ea3c
000003e0: 6518 0ebd 98da 463d f895 e13a 5771 cdbd
000003f0: abce 37bd 5ae3 69bc 7681 a4bc 3c57 b9bc
-0.024688128 -0.042550802 0.012333444 0.06178683 -0.0627035 0.035007432 0.047954567 -0.09098284
0.06716475 -0.091980815 -0.0019467033 -0.060222253 -0.016629886 0.037730306 -0.008496363 -0.04606751
-0.045239564 0.02758915 -0.03700408 0.03715907 0.00060196576 -0.056455385 0.013479185 -0.09563161
-0.045464072 -0.0029201298 0.0016574014 -0.10754266 0.058182117 0.029123472 -0.03493155 -0.06067192
0.005629213 0.032332502 0.031714987 0.03876755 0.036250826 0.07514846 -0.015662394 -0.0028399078
0.055458147 -0.089533135 0.070528954 0.09240393 -0.055670038 0.042146575 0.027181726 0.08146806
0.015262772 -0.028844979 -0.01904215 -0.007902589 -0.038781635 -0.036102384 -0.007509076 -0.0097302785
0.019410266 -0.08025442 0.011771245 -0.03621435 -0.045630097 -0.035465796 0.05959232 0.013422178
-0.015450618 0.046695217 0.068186894 -0.023132974 0.0033254358 0.0473941 0.032760676 -0.0013796488
-0.034966905 0.046903297 -0.008058222 0.009372623 0.04112719 -0.03648927 -0.0010412098 -0.07911475
-0.024324628 -0.00025949287 -0.0021499046 0.008903302 0.013781475 -0.02387192 -0.10602698 0.031098574
0.003496293 0.14510676 0.0632548 0.040274207 0.010758243 -0.062283926 0.0034994176 0.029834889
-0.010531366 0.0018562315 0.0029115763 -0.03878926 -0.0075400155 -0.05300902 -0.07184538 -0.0072620576
-0.039313953 0.033338677 0.058293678 0.0058181216 -0.055898648 0.02332677 -0.055226795 -0.032765176
-0.055181567 -0.0031509197 -0.03052139 0.02958127 0.06568691 -0.004556907 0.020899417 0.015765792
0.024167167 0.036077294 0.031394444 0.014098303 0.01294551 -0.031491015 -0.06450434 0.027361004
-0.08520836 -0.036862843 -0.04519616 -0.049555104 -0.102867186 -0.060775828 0.05566208 -0.1374609
0.022728981 0.064201236 0.013275797 0.035001054 -0.0636797 -0.03842391 0.056389242 0.026053779
-0.068973824 -0.060816277 0.037709817 -0.039438266 0.049870104 -0.011292798 -0.052850362 0.041743662
-0.006776223 -0.021006836 0.027159184 -0.017149922 0.091051005 0.0103116445 -0.03144344 -0.018972889
-0.01862425 -0.01982484 0.030366074 -0.04964339 -0.030443002 -0.08229322 -0.048839673 -0.04083816
0.06715118 -0.036467455 0.028438965 0.039188083 0.0053500757 0.025777144 0.017449781 0.05988648
-0.07263902 0.01853464 0.062733606 -0.06400157 -0.0027225679 0.016176928 -0.0069961613 0.024039946
-0.05307772 0.0014224984 -0.07269838 0.01931059 -0.06536148 0.08056702 -0.025388954 0.029543055
0.08503913 -0.04777527 -0.011660624 -0.08711295 0.013015841 -0.045029722 0.050066445 -0.013044555
-0.015389309 -0.018131215 -0.006655686 -0.057638228 -0.10445979 -0.08471746 0.06632796 -0.120666444
0.015251511 0.028748278 -0.028805945 -0.08297744 0.0030017982 -0.028950974 -0.0179925 -0.081534
0.053404655 0.03328456 -0.08998741 -0.037812922 0.05311972 0.05543551 0.10450042 -0.058572933
-0.023319723 0.06376548 -0.00057315564 -0.06677328 0.06393956 0.0633612 -0.03354789 -0.035071902
-0.13343865 -0.021352274 -0.06482814 0.023511594 -0.032171577 -0.009145242 -0.0012758899 -0.0029018882
0.010109946 0.011269683 -0.017465048 0.027263373 -0.026075903 0.0054976707 -0.05530196 0.028620325
-0.034691233 0.04854831 0.0017210832 -0.100313835 -0.04487483 -0.014275396 -0.020081263 -0.022624604

R0__109 f4 [1, 128, 32]
00000000: 9151 bcbc c7b9 153e a9bc b53c 023e f33d
00000010: db2f edbd 3690 67bc 5d00 f2bd 94fb 7bbd
00000020: 746f ed3d 9dce 133d f485 edbb 04df bbbd
00000030: d044 d53d fc0b ec3d 4b61 a13d 437d c13d
00000040: 2fca b4bd dfca 07be 52a3 7a3e 160c 143e
00000050: 5132 d23c e284 643d 9c05 ea39 c3f2 a83b
00000060: fba5 2bbd aa10 31bd a180 2cbe 013e 8f3d
00000070: a608 99bc 5a3a 0bbd 743c b7bd 96fb 77bd
00000080: f2c3 123d 58fc 373e f189 abb9 cd37 383e
00000090: 0620 993d bf72 b7bd d0e5 843d 37a5 dabd
000000a0: 46bd 2a3d 4b67 603d a6b9 d73d be4b 183c
000000b0: d748 623c f24c 203e 5486 2a3e 489d b7bd
000000c0: 932e 333d 9723 673d 5f7c 883c c923 71bc
000000d0: 6ad0 17bd c3f6 04be 9528 95bb 719b 32be
000000e0: 7dfa 493e 32bd 96bc 6d89 5ebd cc4f a43d
000000f0: 2d58 653d dbc7 53bd ab00 76bc e267 07be
00000100: 1685 4e3c 8dd9 e83d 0d5e 723b af31 213e
00000110: d77d ce3d 385c 94bd ecdc 6a3d ec70 2dbd
00000120: cc01 94bd 3857 913c fddb 8bbd c346 90bb
00000130: 5cda 5b3e eee5 0a3d 5568 d53b 5511 083d
00000140: 3ab0 193d db32 b93d 7b44 9c3d 55df a73c
00000150: 33b4 053d 8cb0 3cbd d50c aa3d 53da 99bd
00000160: 3f89 70bc e900 f7bd f9bf 2cba 868b 80bd
00000170: b165 0fbe 30ba 043e 8e2e d83c 5805 d3bd
00000180: 3e40 12bd e44d c73d aaf1 c53d 59ca 3f3d
00000190: 37ea 133d 0d90 a3bd dcc6 bdbd 7c75 bbbc
000001a0: 89e6 16be 0d60 ac3d a514 2a3d 58ce aebd
000001b0: bf25 8ebc 6a2d 723c 511b 273e 7038 c1bd
000001c0: 6241 2cbd 792f 4cbd 3f36 2d3e 841e 343e
000001d0: 63e7 b9bd 02e3 1abe 0788 333e 3d68 453d
000001e0: 4bfd bf3d 0803 95bd d40b cdba 1bc6 6d3c
000001f0: d1e1 cfbc 1b35 f0bd d347 efbd 03c8 edbd
00000200: 6801 ceba d5be 5bbb 205e cdbb aa93 a73c
00000210: 0738 a93c 0710 d73d 687c b23d 9913 643e
00000220: 9eee 153d 7448 983c 3236 683d 606a 9ebd
00000230: 4e23 38bc 177e 643b 6704 ccbc de13 cabd
00000240: 3ab1 08be 8bdc 87bd b904 ecbc b2af 49bd
00000250: a5aa 283d f84f 0ebe 40c6 993d e15a 19be
00000260: be14 29bd 6017 94be 8b8c 58bc c80c 063c
00000270: ff02 933d 7d93 2fbe 022f babd b476 a7bc
00000280: 1a1b 8fbd 88fc 103e 65c4 8b3c 25d8 3abd
00000290: 82bb 9d3d 0654 07be 5321 2f3e b8b2 c9bd
000002a0: 38f6 ac3d bc7b 89bd 5c7c 05ba 1e3d 2fbe
000002b0: 8620 203e 5e44 323d 82a2 823d 2f1a 023e
000002c0: 59ca b0bd a074 2e3d 8674 833d d18e 9cbd
000002d0: 80db b73d f4e0 523b 7a67 9f3d fcdb 41bd
000002e0: acf6 84bd 79e9 743d afd4 303e efc2 973c
000002f0: a266 343d 17a6 aebd de7e 393c 0aed d63d
00000300: a292 3b3e 5130 053d 91a1 943c e162 0ebd
00000310: f9b6 e8bc e57b 9e3c 7798 2c3d 1d74 f63d
00000320: a414 993d 40b0 13bc e59d babd e95d b5bd
00000330: 1c0d 673d 941f 8e3d 4db3 4b3d ae40 0b3d
00000340: fb72 a43c 5e30 aebd c911 61bd 261e 1abd
00000350: 968f 4fbd f2a9 21be 0e98 6e3c 04d2 d0bd
00000360: 4035 363d 9833 223d f339 fa3d 032a fbbd
00000370: 45d6 c5bd e7d4 093e 7595 66be a9cf edbd
00000380: 87d0 223d baf7 e43c cfbd aebd 2a51 ae3d
00000390: ee9c cdbb a745 08bc 0835 85bd 8294 63bd
000003a0: d571 75bd bfa1 04be 55c0 1dbe 0df9 82be
000003b0: 8028 cb3c 3b18 b73c c667 193e faad 93bc
000003c0: 8819 acbd 6440 39bd 1c54 ddbd 18a1 1e3d
000003d0: 2fc9 493d 08c4 1b3d 99fb d9bd e168 dc3c
000003e0: 417c 1dbd 40ed 1bbe 3050 f63c 6724 59be
000003f0: efca 2e3e fc0c 413e df26 4a3d 5205 cb3d
-0.022988113 0.1462165 0.022184687 0.118770614 -0.11581393 -0.014133504 -0.118164755 -0.06151922
0.115935236 0.036085714 -0.0072486345 -0.09173396 0.104135156 0.11525723 0.07879885 0.0944772
-0.08827626 -0.13260983 0.24476364 0.14457735 0.025658758 0.05579079 0.00044636137 0.0051558926
-0.04190634 -0.043228783 -0.16845943 0.06994248 -0.018680882 -0.033991195 -0.089470774 -0.060542665
0.0358314 0.17967355 -0.00032718436 0.17990036 0.07476811 -0.08957433 0.06489146 -0.106760435
0.04168441 0.054786008 0.105334565 0.009295402 0.013811312 0.15654352 0.16652805 -0.08965546
0.04374559 0.056430425 0.016660867 -0.0147180045 -0.037063994 -0.12984757 -0.004551957 -0.17442109
0.1972446 -0.018400762 -0.05433028 0.080230325 0.055992294 -0.05170427 -0.015014808 -0.13223222
0.012604972 0.113696195 0.0036982328 0.15741609 0.10082596 -0.07244152 0.057339594 -0.04234402
-0.07226905 0.017741784 -0.06829069 -0.0044029667 0.21470016 0.033910684 0.0065126815 0.033219654
0.03752158 0.09042903 0.07630249 0.020492235 0.032642554 -0.046066806 0.08303229 -0.07512345
-0.0146811595 -0.120607205 -0.00065898855 -0.06276612 -0.14003636 0.1296165 0.026389387 -0.103037536
-0.035705797 0.09731653 0.096652344 0.046823833 0.036112037 -0.0798646 -0.09266445 -0.02288317
-0.1473638 0.08416758 0.041523594 -0.08535451 -0.017351983 0.014781335 0.16319014 -0.09434593
-0.04205454 -0.04984996 0.16915224 0.17589766 -0.09077337 -0.15125659 0.17532359 0.048195112
0.09374484 -0.07275969 -0.0015643784 0.014512564 -0.025376232 -0.11728879 -0.11683621 -0.11610415
-0.0015716972 -0.0033530493 -0.006267324 0.020456154 0.020656599 0.10501104 0.08715135 0.22273101
0.036604516 0.018589236 0.05669231 -0.07735133 -0.011238886 0.0034865194 -0.024904443 -0.098670706
-0.13348857 -0.06633862 -0.028810846 -0.04923982 0.041178364 -0.13897693 0.07508516 -0.14976074
-0.041279547 -0.28924084 -0.013217102 0.008181758 0.07178306 -0.17146106 -0.09090997 -0.020442344
-0.06987591 0.14158833 0.017061422 -0.045616288 0.0770178 -0.13215646 0.17102556 -0.09848541
0.084454 -0.067130536 -0.00050920784 -0.17113158 0.15637407 0.04352223 0.06378652 0.12705301
-0.08632345 0.04259169 0.064187095 -0.076444276 0.08977413 0.003217754 0.077834085 -0.047328934
-0.064923614 0.05979297 0.17268632 0.018525569 0.04404319 -0.08527773 0.011321751 0.1049443
0.18317655 0.03251678 0.018143447 -0.034762267 -0.02840756 0.019346187 0.04213759 0.120338656
0.0747464 -0.009014189 -0.09112147 -0.088558026 0.056408986 0.06939617 0.04973154 0.03399723
0.020074358 -0.08505319 -0.054948602 -0.037626408 -0.050674044 -0.15787485 0.01456262 -0.10196307
0.044484377 0.039599985 0.12218084 -0.122638725 -0.09660009 0.13460122 -0.22517951 -0.11611874
0.03974965 0.027950156 -0.08532297 0.085115746 -0.006274811 -0.008317388 -0.065042555 -0.05556155
-0.05992301 -0.12952326 -0.154054 -0.25580636 0.024799585 0.022350421 0.14980993 -0.018027294
-0.08403307 -0.045227423 -0.10807058 0.03872785 0.04926413 0.038028747 -0.106436916 0.026905479
-0.038448576 -0.15227222 0.030067533 -0.21205293 0.170696 0.1885261 0.049353477 0.09913124
